models/tmp.pth (torch_old, 4574 bytes, 15 tensors)

rnn.weight_ih_l0 f4 [10, 1]
-2.0337007 4.0825834 -2.1875715 4.0603614 2.1738203 4.061292 -2.0413265 -1.986905
1.9503145 2.1384988
00000000: 2728 02c0 86a4 8240 2c01 0cc0 7bee 8140
00000010: df1f 0b40 1bf6 8140 18a5 02c0 e752 febf
00000020: e8a3 f93f 2add 0840

rnn.weight_hh_l0 f4 [10, 10]
1.6487046 -1.9091021 1.7481475 -1.828011 -1.7873393 2.1203365 1.8153831 1.859587
-2.0840154 -2.0645437 -3.7580762 3.9281948 -3.8734171 4.1150084 3.9344006 -4.109473
-3.6640093 -4.19669 3.7022045 4.142695 2.0132978 -1.796361 2.1555045 -1.7708759
-2.1990528 2.1194787 2.0263376 1.9189303 -1.7525891 -1.8376346 -4.1718054 3.7790415
-4.093177 3.7665567 4.1402254 -3.8632343 -4.114567 -4.1681824 3.8849316 4.15315
-1.9295042 1.8851525 -1.6426544 1.9664855 2.199742 -1.8269974 -2.0085142 -1.9466836
1.8597604 2.0881367 -4.1634283 4.3878417 -4.668276 4.646109 4.3070006 -4.2255654
-4.377851 -4.3461695 4.167279 4.1376514 1.781272 -1.7280622 2.0453968 -1.9954892
-1.7021264 1.6681018 2.168559 2.1259162 -2.106951 -1.7947178 1.6555923 -2.1364114
1.7838959 -1.9651729 -2.0455015 2.2022698 1.9358683 1.8264469 -1.831183 -1.673633
-2.1567464 1.7461311 -2.0812807 1.7184777 1.9694532 -1.6778792 -2.1342587 -2.0903914
1.968319 2.1562965 -1.8616401 1.9959797 -2.1789722 1.901686 1.924375 -2.083527
-1.8025951 -1.6975334 1.6809173 2.1830442
00000000: c108 d33f 755d f4bf 4cc3 df3f 44fc e9bf
00000010: 89c7 e4bf 98b3 0740 795e e83f f206 ee3f
00000020: 8260 05c0 7c21 04c0 5284 70c0 8b67 7b40
00000030: 11e6 77c0 26ae 8340 38cd 7b40 ce80 83c0
00000040: 217f 6ac0 494b 86c0 ebf0 6c40 f590 8440
00000050: dfd9 0040 28ef e5bf c9f3 0940 10ac e2bf
00000060: 48bd 0cc0 8aa5 0740 84af 0140 829f f53f
00000070: d754 e0bf 9c37 ebbf 6e7f 85c0 d1db 7140
00000080: 4efb 82c0 440f 7140 ba7c 8440 3b3f 77c0
00000090: 88aa 83c0 c061 85c0 b8a2 7840 9be6 8440
000000a0: fef9 f6bf ad4c f13f 8042 d2bf ccb5 fb3f
000000b0: 93c8 0c40 0ddb e9bf 7f8b 00c0 ee2c f9bf
000000c0: a10c ee3f 08a4 0540 ce3a 85c0 3369 8c40
000000d0: 8462 95c0 edac 9440 f3d2 8940 d537 87c0
000000e0: 5b17 8cc0 d213 8bc0 595a 8540 a467 8440
000000f0: b900 e43f 2431 ddbf c8e7 0240 316c ffbf
00000100: 47df d9bf 5c84 d53f acc9 0a40 030f 0840
00000110: 49d8 06c0 50b9 e5bf 73ea d33f f7ba 08c0
00000120: b356 e43f c98a fbbf 7fe9 02c0 fdf1 0c40
00000130: 88ca f73f 03c9 e93f 3464 eabf 9b39 d6bf
00000140: 2208 0ac0 3981 df3f b433 05c0 14f7 db3f
00000150: 0b17 fc3f bfc4 d6bf b297 08c0 f9c8 05c0
00000160: e1f1 fb3f c300 0a40 394a eebf 437c ff3f
00000170: 4874 0bc0 726a f33f ec51 f63f 8258 05c0
00000180: 70bb e6bf c648 d9bf 4c28 d73f ffb6 0b40

rnn.bias_ih_l0 f4 [10]
-1.7286093 3.8122833 -2.1645937 3.9892354 2.0838523 4.3404503 -2.110103 -2.1706579
2.1058414 1.9095327
00000000: 1243 ddbf 73fc 7340 b488 0ac0 a24f 7f40
00000010: d65d 0540 f8e4 8a40 ed0b 07c0 0fec 0ac0
00000020: 1bc6 0640 916b f43f

rnn.bias_hh_l0 f4 [10]
-2.137985 3.741069 -2.1449852 3.8701205 1.9700428 4.5820637 -1.7382227 -2.0875971
1.782967 2.0240767
00000000: bfd4 08c0 ad6d 6f40 7047 09c0 0eb0 7740
00000010: 5d2a fc3f 44a0 9240 157e debf 319b 05c0
00000020: 4338 e43f 798a 0140

lin.weight f4 [1, 10]
-0.2799543 9.509143 -0.027876187 9.535772 9.704479 8.163949 -0.14384532 0.16615862
9.771051 9.747219
00000000: 2c56 8fbe 7325 1841 9a5c e4bc 8692 1841
00000010: 8c45 1b41 899f 0241 304c 13be 7c25 2a3e
00000020: 3a56 1c41 9cf4 1b41

exp_avg f4 [10, 1]
0.005138074 -1.1086955 3.3750503e-06 -2.1159327 -0.00013815088 -0.019164503 0.0036422191 0.0038568084
-0.4104442 -0.00056176813
00000000: 4a5d a83b bce9 8dbf ec7e 6236 716b 07c0
00000010: 98dc 10b9 e0fe 9cbc 4cb2 6e3b 82c2 7c3b
00000020: be25 d2be 9f43 13ba

exp_avg_sq f4 [10, 1]
0.0004851977 4.632592 2.0941235e-10 16.841766 3.508724e-07 0.0013181622 0.0002437098 0.00027338133
3.0916288 5.801799e-06
00000000: 2262 fe39 323e 9440 5640 662f f0bb 8641
00000010: 895f bc34 2fc6 ac3a 5a8c 7f39 9f54 8f39
00000020: 3fdd 4540 13ad c236

exp_avg f4 [10, 10]
-0.00044471154 0.00046016515 -0.000518494 0.00046332824 0.00051714526 -0.0004775059 -0.00045265662 -0.00043189782
0.00017426557 0.00051287457 0.03368592 -0.0066506416 0.033666797 -0.021889051 -0.033667013 0.027142223
0.03368125 0.033684783 -0.033731084 -0.033667624 -4.403832e-07 4.559283e-07 -5.1470494e-07 4.5910906e-07
5.133461e-07 -4.734036e-07 -4.4838328e-07 -4.2756358e-07 1.7013289e-07 5.0904345e-07 0.049120914 -0.0266333
0.049117617 -0.035891082 -0.049117696 0.0435919 0.049120814 0.049121697 -0.04913834 -0.049117923
9.297213e-06 -1.1959545e-05 1.2488244e-05 -1.2233404e-05 -1.246948e-05 1.2171202e-05 1.0444085e-05 1.0126607e-05
-8.232365e-06 -1.2435118e-05 0.0006030954 -0.00048285295 0.0006104363 -0.00036334843 -0.00061030226 0.00054297544
0.00060388714 0.00060179806 -0.0005757577 -0.0006098778 -0.00026684577 0.00027618627 -0.00031144844 0.0002780999
0.00031063304 -0.00028666915 -0.0002716479 -0.00025912235 0.00010392102 0.00030805115 -0.00025934336 0.0002673663
-0.0002980487 0.00026893514 0.00029734184 -0.00027650618 -0.00026352055 -0.00025234974 0.00011048907 0.0002951038
0.011573146 -0.012545139 0.012723545 -0.012647036 -0.01271718 0.012620585 0.011996785 0.01181267
-0.010641084 -0.012706131 3.678102e-05 -4.5904137e-05 4.8423062e-05 -4.6862653e-05 -4.834289e-05 4.683565e-05
4.0727617e-05 3.9398554e-05 -2.977666e-05 -4.817305e-05
00000000: 2c28 e9b9 5242 f139 8beb 07ba ddea f239
00000010: 0891 073a c259 fab9 8b52 edb9 5870 e2b9
00000020: 0fbb 3639 6e72 063a 3ffa 093d a0ed d9bb
00000030: 32e6 093d ab50 b3bc 6ce6 09bd 5e59 de3c
00000040: 5af5 093d 0ef9 093d 9b29 0abd 10e7 09bd
00000050: ce6d ecb4 4fc6 f434 412a 0ab5 787b f634
00000060: e0cc 0935 1828 feb4 54b9 f0b4 e48b e5b4
00000070: c6ad 3634 33a5 0835 0333 493d 142e dabc
00000080: 8e2f 493d 8702 13bd a32f 49bd 6c8d 323d
00000090: e832 493d d533 493d 4945 49bd e02f 49bd
000000a0: 3afb 1b37 dba5 48b7 9984 5137 123e 4db7
000000b0: 0234 51b7 ea32 4c37 0139 2f37 72e5 2937
000000c0: bd1d 0ab7 6da0 50b7 0c19 1e3a 6d27 fdb9
000000d0: b005 203a cd7f beb9 b1fc 1fba 7756 0e3a
000000e0: 2e4e 1e3a fcc1 1d3a 72ee 16ba 35e0 1fba
000000f0: 6fe7 8bb9 18cd 9039 e749 a3b9 f0cd 9139
00000100: 76dc a239 154c 96b9 f76b 8eb9 d0da 87b9
00000110: 2cf0 d938 ed81 a139 7af8 87b9 4c2d 8c39
00000120: 6b43 9cb9 ddff 8c39 8ce4 9b39 08f8 90b9
00000130: 2129 8ab9 cf4d 84b9 5eb6 e738 29b8 9a39
00000140: 4b9d 3d3c 208a 4dbc 6a76 503c 8435 4fbc
00000150: b85b 50bc 92c6 4e3c 2a8e 443c ee89 413c
00000160: f157 2ebc 602d 50bc 5245 1a38 3189 40b8
00000170: de19 4b38 648e 44b8 c8c3 4ab8 6571 4438
00000180: f2d2 2a38 e03f 2538 e4c8 f9b7 6b0d 4ab8

exp_avg_sq f4 [10, 10]
3.636463e-06 3.893344e-06 4.9430873e-06 3.946894e-06 4.9174064e-06 4.1923868e-06 3.7675466e-06 3.4299414e-06
5.5856043e-07 4.8365305e-06 0.0042879465 0.0001711374 0.0042879996 0.0018173307 0.0042879987 0.0027898927
0.0042879675 0.004287977 0.0042904993 0.0042879963 3.5653587e-12 3.821509e-12 4.8703303e-12 3.875016e-12
4.84465e-12 4.120073e-12 3.6960743e-12 3.3608045e-12 5.3213087e-13 4.7637775e-12 0.009081595 0.0026719044
0.009081614 0.004850156 0.009081613 0.0071534095 0.0090816105 0.009081534 0.009082487 0.009081613
1.5890863e-09 2.629488e-09 2.867111e-09 2.7512899e-09 2.8585019e-09 2.7233833e-09 2.0053148e-09 1.8852524e-09
1.2459225e-09 2.8427687e-09 1.2123375e-06 7.5809373e-07 1.2250907e-06 4.1807152e-07 1.2248406e-06 9.661181e-07
1.2136218e-06 1.2102083e-06 1.179972e-06 1.2240527e-06 1.3093381e-06 1.4025087e-06 1.7835727e-06 1.4219486e-06
1.7742465e-06 1.5110292e-06 1.3568831e-06 1.2346495e-06 1.9864515e-07 1.7448775e-06 1.2332791e-06 1.3118791e-06
1.6294176e-06 1.3280671e-06 1.6216898e-06 1.4027152e-06 1.2733801e-06 1.1675774e-06 2.2306439e-07 1.5973417e-06
0.0024600157 0.0028933694 0.0029736375 0.0029390124 0.002970662 0.0029263808 0.002643499 0.0025629457
0.0020795586 0.0029655003 2.4870774e-08 3.8738733e-08 4.3106848e-08 4.037342e-08 4.2964228e-08 4.0326906e-08
3.049438e-08 2.853661e-08 1.630023e-08 4.266287e-08
00000000: f509 7436 92a3 8236 ccdc a536 906f 8436
00000010: 3300 a536 54ac 8c36 f5d5 7c36 f22d 6636
00000020: fbef 1535 7b49 a236 e781 8c3b 5973 3339
00000030: 5982 8c3b 8033 ee3a 5782 8c3b a2d6 363b
00000040: 1482 8c3b 2882 8c3b 5197 8c3b 5282 8c3b
00000050: cbe3 7a2c 1875 862c 095c ab2c 0b57 882c
00000060: ba74 aa2c 52f6 902c 470b 822c df7e 6c2c
00000070: 12c8 152b 4b9c a72c f8ca 143c 1e1b 2f3b
00000080: 0dcb 143c 0fee 9e3b 0ccb 143c 2667 ea3b
00000090: 09cb 143c b7ca 143c b6ce 143c 0ccb 143c
000000a0: 0167 da30 71b2 3431 c006 4531 3411 3d31
000000b0: 4c6f 4431 4426 3b31 dfcd 0931 b68d 0131
000000c0: 003d ab30 845a 4331 99b7 a235 ce7f 4b35
000000d0: cc6d a435 5073 e034 3465 a435 91ab 8135
000000e0: bae3 a235 716e a235 875f 9e35 214a a435
000000f0: 84bc af35 d53d bc35 1763 ef35 c8d9 be35
00000100: a522 ee35 91ce ca35 261e b635 3cb6 a535
00000110: 2a4b 5534 8931 ea35 2687 a535 d313 b035
00000120: 5db2 da35 0a40 b235 d6a8 d935 ed44 bc35
00000130: 02e9 aa35 a7b5 9c35 7983 6f34 3e64 d635
00000140: 3738 213b af9e 3d3b 5ce1 423b 729c 403b
00000150: 70af 423b 86c8 3f3b 8e3e 2d3b 18f7 273b
00000160: 3449 083b d758 423b 69a3 d532 b061 2633
00000170: 7b24 3933 0b67 2d33 ab87 3833 e733 2d33
00000180: edf8 0233 ab20 f532 9604 8c32 523c 3733

exp_avg f4 [10]
0.00044772096 -0.034176417 2.8594033e-07 -0.049147446 -1.1392426e-05 -0.0007107827 0.0003281046 0.00029721973
-0.01286404 -4.7362264e-05
00000000: 17bc ea39 92fc 0bbd 5783 9934 d54e 49bd
00000010: 1922 3fb7 d253 3aba 7405 ac39 28d4 9b39
00000020: b2c3 52bc d8a6 46b8

exp_avg_sq f4 [10]
3.684603e-06 0.004420374 1.5031169e-12 0.009095896 2.386021e-09 1.7147629e-06 1.9784065e-06 1.6239119e-06
0.0030352573 4.1239215e-08
00000000: ff44 7736 c9d8 903b 7e8b d32b f406 153c
00000010: 53f7 2331 ce26 e635 c4c4 0436 30f5 d935
00000020: 2beb 463b ff1e 3133

exp_avg f4 [10]
0.00044772096 -0.034176417 2.8594033e-07 -0.049147446 -1.1392426e-05 -0.0007107827 0.0003281046 0.00029721973
-0.01286404 -4.7362264e-05
00000000: 17bc ea39 92fc 0bbd 5783 9934 d54e 49bd
00000010: 1922 3fb7 d253 3aba 7405 ac39 28d4 9b39
00000020: b2c3 52bc d8a6 46b8

exp_avg_sq f4 [10]
3.684603e-06 0.004420374 1.5031169e-12 0.009095896 2.386021e-09 1.7147629e-06 1.9784065e-06 1.6239119e-06
0.0030352573 4.1239215e-08
00000000: ff44 7736 c9d8 903b 7e8b d32b f406 153c
00000010: 53f7 2331 ce26 e635 c4c4 0436 30f5 d935
00000020: 2beb 463b ff1e 3133

exp_avg f4 [1, 10]
0.0 -170.92113 0.0 -171.03539 -171.29785 -151.78717 0.0 0.0
-171.27129 -171.29782
00000000: 0000 0000 cfeb 2ac3 0000 0000 0f09 2bc3
00000010: 404c 2bc3 84c9 17c3 0000 0000 0000 0000
00000020: 7345 2bc3 3e4c 2bc3

exp_avg_sq f4 [1, 10]
0.0 7223.2974 0.0 7234.189 7259.489 5833.2305 0.0 0.0
7253.059 7259.4766
00000000: 0000 0000 61ba e145 0000 0000 8311 e245
00000010: e9db e245 d849 b645 0000 0000 0000 0000
00000020: 79a8 e245 d0db e245
